examples/gnn_fraud_detection_pipeline/model/model.pt (torch, 262677 bytes, 28 tensors)

hetro_embedding.embeds.client.weight f4 [861, 1]
0.82173777 0.045308325 1.3174422 -0.3913111 -0.13560505 -0.38856545 0.22472496 -1.2106202
-0.37677038 0.3749501 1.1542062 -0.06090012 0.41582224 -0.43297398 0.37792623 0.1371065
0.18409175 0.92274195 -0.24322493 -0.28155947 0.8936183 -0.10273009 -0.017738542 0.2047407
-0.0012359028 1.1469506 -1.1694384 -0.31885275 -0.32502562 0.4139073 1.0277433 -0.8355116
-0.57388735 -0.06969909 0.4506507 0.69848573 -0.20765297 0.92532855 0.33012268 0.98626894
-0.41161588 0.05650811 0.9794698 -0.4223004 0.8913874 0.22395729 0.2506282 -0.118385546
1.07884 -0.13083926 -1.7902905 -0.21363032 0.6595139 2.0755515 -0.3236168 -0.23257639
-0.57034415 -0.05321214 -1.1603694 -0.8822022 0.0070451633 -1.1347135 -0.7262302 1.2946228
0.6531101 -1.0458059 -1.4876854 0.2808424 1.2033081 0.6087757 0.497963 -0.13906765
-0.711487 0.4924931 1.5122234 1.3514547 -0.6589092 1.3438327 -0.178855 -0.46533266
-1.2243456 0.8394477 0.025965035 0.07194872 0.13602059 0.32737008 -0.032396913 0.6418362
0.14165452 -0.9265688 0.40116474 0.8047183 -1.0339599 -1.2304722 -0.35203534 2.1277328
1.1921021 0.78899705 0.45837742 -0.7905468 -0.4719497 0.002799755 -1.2403969 -0.47444165
-0.34313434 -0.7100689 0.8460003 -0.44704202 0.76497257 -0.30955645 -1.0461931 -1.9209228
-1.1857498 1.2077796 -0.35187107 -0.5755876 -0.034805544 -0.070529886 -0.15680765 0.99529755
-0.76013565 0.039683573 1.7023205 -1.4418504 -0.24904302 -0.70654607 -0.0033950119 0.3313333
0.4439804 0.7928418 -0.09276106 0.4345572 0.22109829 0.7783104 1.7823986 1.1532941
-0.019622471 0.5986514 0.14810865 0.3223953 0.007964532 -0.028493509 0.6060334 -0.18297914
0.37144333 -0.21186405 -0.64888316 1.1627492 1.331593 -0.03987242 0.12657548 -0.7166341
1.8636086 0.43084553 0.60471684 -0.5585422 0.056759104 -0.32323447 -0.49964052 -0.25211024
0.016290896 0.5182778 1.6285218 1.0276594 -0.75618255 0.666973 0.012242866 -0.28587848
1.7143306 -0.07605645 -1.5725265 0.054011557 -0.0798911 0.1193287 -0.48723832 -0.08221318
-0.0743808 -0.28191224 0.33653164 0.39110988 0.82155824 -0.7343698 -1.4071923 0.01040444
-0.0039005997 0.0069232737 -0.9872805 -0.3995261 1.5051358 -0.0033992568 0.09295538 0.9414267
-1.234751 0.18996984 1.059209 -0.009308044 -0.773067 -0.32476434 -0.69544274 -0.24648373
0.2711537 0.62868804 -0.07954024 -1.1127346 -0.14105181 -0.1937922 -0.013377515 0.09234464
-0.16191755 -0.6190945 -1.2772288 -1.5579958 0.010068158 -1.722338 0.8243007 -0.3188991
0.6670697 0.92841697 -0.059289083 -0.08256505 -0.259175 -0.5974923 -0.4873941 0.27022308
-2.3396635 -0.56501114 -1.3260726 0.028045133 -0.7027497 -1.3259178 0.68505085 0.44052926
1.0948879 -0.19199704 -1.7128345 -0.16362453 -1.7493258 -0.23836465 1.4409184 -0.31842953
0.53284603 -0.022026513 0.7222284 -1.0181762 -0.14564042 -0.9904087 -0.11231097 0.08754781
1.1624918 1.4502323 0.044686917 0.5563132 -0.39367092 -1.0346524 0.93626523 -0.30274248
00000000: 685d 523f 3995 393d f2a1 a83f ee59 c8be
00000010: 0ddc 0abe 0df2 c6be 4d1e 663e 9af5 9abf
00000020: 0ce8 c0be 76f9 bf3e 07bd 933f 6772 79bd
00000030: a7e6 d43e c4ae ddbe 8c7f c13e a565 0c3e
00000040: 8c82 3c3e d138 6c3f f50f 79be 9028 90be
00000050: 2bc4 643f 2764 d2bd 6b50 91bc 8ca7 513e
00000060: 04fe a1ba 47cf 923f 28b0 95bf ab40 a3be
00000070: c269 a6be a8eb d33e 188d 833f 17e4 55bf
00000080: 48ea 12bf 66be 8ebd b0bb e63e f6cf 323f
00000090: fba2 54be 55e2 6c3f d705 a93e 1f7c 7c3f
000000a0: 51bf d2be 0c75 673d 88be 7a3f c237 d8be
000000b0: f731 643f 0f55 653e 5752 803e 1f74 f2bd
000000c0: 6e17 8a3f bafa 05be 3d28 e5bf e8c1 5abe
000000d0: e7d5 283f d6d5 0440 1ab1 a5be 8128 6ebe
000000e0: 1302 12bf f9f4 59bd fc86 94bf 01d8 61bf
000000f0: 1ddb e63b 4b3e 91bf 39ea 39bf 33b6 a53f
00000100: 3932 273f f8dc 85bf 7a6c bebf 93ca 8f3e
00000110: 0006 9a3f b9d8 1b3f 02f5 fe3e c067 0ebe
00000120: 0324 36bf 0e28 fc3e 8990 c13f 78fc ac3f
00000130: 46ae 28bf b602 ac3f c425 37be 1540 eebe
00000140: 5bb7 9cbf 0be6 563f a0b4 d43c da59 933d
00000150: fb48 0b3e 0d9d a73e a0b2 04bd 614f 243f
00000160: e20d 113e 9d33 6dbf 7765 cd3e 0502 4e3f
00000170: cc58 84bf 1d80 9dbf fa3d b4be c62c 0840
00000180: cd96 983f b6fb 493f 72b0 ea3e 4661 4abf
00000190: 64a3 f1be 187c 373b 53c5 9ebf 04ea f2be
000001a0: 4eaf afbe 13c7 35bf 7a93 583f b1e2 e4be
000001b0: 3ed5 433f 2f7e 9ebe a8e9 85bf cce0 f5bf
000001c0: a6c6 97bf 8698 9a3f 7228 b4be b559 13bf
000001d0: 4290 0ebd f971 90bd 2f92 20be d2cb 7e3f
000001e0: 4098 42bf 3e8b 223d a3e5 d93f 8e8e b8bf
000001f0: 2205 7fbe 34e0 34bf d97e 5ebb 85a4 a93e
00000200: 6651 e33e aef7 4a3f 83f9 bdbd 487e de3e
00000210: 9767 623e 5a3f 473f a325 e43f 249f 933f
00000220: 4ebf a0bc 3841 193f cba9 173e ff10 a53e
00000230: ab7d 023c 386b e9bc 0125 1b3f e25e 3bbe
00000240: d22d be3e e4f2 58be 351d 26bf f7d4 943f
00000250: a471 aa3f 4351 23bd 019d 013e 5575 37bf
00000260: ba8a ee3f c997 dc3e b9ce 1a3f 9ffc 0ebf
00000270: 3c7c 683d fd7e a5be e2d0 ffbe 9814 81be
00000280: 7c74 853c dbad 043f 6773 d03f 588a 833f
00000290: 2e95 41bf bebe 2a3f 4d96 483c aa5e 92be
000002a0: 2f6f db3f 7cc3 9bbd 8c48 c9bf 393b 5d3d
000002b0: f29d a3bd 9b62 f43d 4d77 f9be 625f a8bd
000002c0: f654 98bd cd56 90be e04d ac3e 8e3f c83e
000002d0: a451 523f a9ff 3bbf e11e b4bf 6277 2a3c
000002e0: 34a1 7fbb a1dc e23b 6abe 7cbf af8e ccbe
000002f0: 4aa8 c03f 11c6 5ebb 645f be3d 5701 713f
00000300: 520c 9ebf 7487 423e 2994 873f c480 18bc
00000310: b8e7 45bf 8347 a6be 8908 32bf 3b66 7cbe
00000320: a8d4 8a3e b3f1 203f fee5 a2bd 166e 8ebf
00000330: e36f 10be 7671 46be 5d2d 5bbc 301f bd3d
00000340: b7cd 25be fa7c 1ebf 3c7c a3bf 686c c7bf
00000350: eaf4 243c 9275 dcbf 5f05 533f be46 a3be
00000360: 14c5 2a3f bcac 6d3f 1cd9 72bd dd17 a9bd
00000370: 96b2 84be 41f5 18bf b88b f9be ae5a 8a3e
00000380: 0cbd 15c0 92a4 10bf bfbc a9bf e8be e53c
00000390: 68e7 33bf adb7 a9bf 7e5f 2f3f 0d8d e13e
000003a0: 4925 8c3f df9a 44be 293e dbbf 308d 27be
000003b0: e8e9 dfbf dd15 74be 0470 b83f 3209 a3be
000003c0: 9968 083f f270 b4bc f6e3 383f 9953 82bf
000003d0: c322 15be 6d8b 7dbf 4b03 e6bd 444c b33d
000003e0: 88cc 943f 36a1 b93f a109 373d 8b6a 0e3f
000003f0: 3c8f c9be 7d6f 84bf 14af 6f3f 1001 9bbe

hetro_embedding.embeds.merchant.weight f4 [482, 1]
-0.32124156 -0.5938493 -0.01880819 1.035797 -0.3123415 1.2233213 0.099305466 1.2419775
0.47320122 0.43844232 -0.8104598 -0.18826827 -2.2083945 -0.2668926 -0.7277526 0.0010399536
1.0167356 -2.4954836 0.9983535 1.1086534 -0.48569667 -0.0036875044 -0.16609803 -0.82986087
-0.44801435 -1.4093295 0.8471891 0.73010427 -1.8106636 -0.9970344 -1.510904 -0.53290164
1.5941336 -0.63093877 -0.3594679 0.3104403 0.7368806 0.36231434 -0.7321628 -0.4373379
-0.119064435 1.4986134 -1.1293181 1.0426003 0.22865413 -0.3980151 1.4101827 0.71192163
0.6095121 1.0436468 0.5990423 -0.3583513 0.7610266 1.9064654 -0.81987524 -1.3176662
-0.56022465 -0.1957046 1.218453 -0.14736177 0.032976616 0.43073753 -0.094039455 1.3341279
-0.026705887 -0.053141084 -0.079810254 -1.2951738 0.07697764 -0.088458754 -0.47921085 -0.4974496
0.22323793 -1.0904094 -0.07703449 0.0007607615 -0.5026248 -1.7928988 0.5224827 -1.5495872
-0.23728749 0.66731507 -0.34047538 -0.81039333 -0.1630853 -0.08119686 -0.36606604 0.20185591
0.81173944 0.3719214 -0.017368974 -0.043002144 -0.23393954 -1.5473449 -0.17180637 -0.8451413
-0.11711038 0.06241358 -0.19070277 1.1541468 -0.075507864 0.487865 -0.22456826 0.9976363
0.23832346 -0.0035095334 0.5910799 -0.49591884 -0.31094065 -0.6315683 -0.20190774 0.55513835
-0.1397338 -1.1793339 -1.8943138 -0.47908697 1.1639146 -1.4855332 0.4937472 -0.5371121
-1.3061424 0.60256296 0.5130291 0.10470742 -0.37617168 -2.7255318 0.01495762 1.9090179
1.3771863 -0.605165 0.80241674 0.16401236 0.589742 1.1756777 -0.006159387 0.9590315
0.70880455 -0.89474726 -0.42945832 -0.42835295 0.24917981 1.4757025 -0.07613767 -1.1384194
1.8169693 0.3659606 -0.0035552585 -0.3268476 0.75667113 0.30091953 0.51220584 -0.13199726
-0.12615392 0.77324694 -0.021139981 0.8396234 -0.14945151 -0.039382365 1.3515084 -0.040097993
-0.49289665 0.6703792 -0.0705012 1.0982243 0.19130442 -0.13832699 0.8016802 0.16536252
-0.26261854 -1.8992131 -0.8394377 0.67904174 0.7927219 -0.041371774 -0.24432285 1.5489889
-0.21796717 1.8475306 0.672971 -0.31587535 -0.474407 1.1203197 -0.3210646 0.5468666
-0.047253154 0.44563738 -0.16739435 0.11137152 1.0539293 1.573932 -0.37468797 -0.107211865
-0.24835116 -0.9163029 -0.0645447 -0.057110798 0.7445652 -0.22049987 -0.016956208 -1.6942723
0.18274471 -1.918504 0.13833874 0.281887 1.463525 0.856701 1.1336933 -1.3528436
-0.38289145 -0.69887996 -0.8312277 0.011432233 2.2450109 -2.0291526 0.85807914 -1.493841
1.0342563 0.00035594104 -0.020366095 -0.7664979 -0.20165148 0.41531014 -0.052619327 -0.09670941
1.2618706 1.6192619 0.57404447 -0.55276895 2.05624 -0.17571387 0.6796869 1.1526186
-1.1437417 0.69827145 -0.1962539 0.36613363 1.21129 0.89515626 0.23884231 0.2839562
0.1155489 0.9619845 -0.5313694 0.21072021 1.3729793 -0.43848103 0.03889106 -1.1093869
-0.05306747 0.35444602 0.70183665 0.25051692 0.019658303 -0.6748728 -0.29693797 0.2823919
00000000: c679 a4be 8206 18bf a213 9abc ff94 843f
00000010: 3aeb 9fbe cb95 9c3f aa60 cb3d 1ef9 9e3f
00000020: 6e47 f23e 837b e03e 4b7a 4fbf 66c9 40be
00000030: 5656 0dc0 26a6 88be ff4d 3abf 0d4f 883a
00000040: 6424 823f 01b6 1fc0 1894 7f3f 5be8 8d3f
00000050: 3cad f8be 0faa 71bb 9a15 2abe c371 54bf
00000060: 2362 e5be e964 b4bf 63e1 583f 1de8 3a3f
00000070: d3c3 e7bf a53d 7fbf 4d65 c1bf 3e6c 08bf
00000080: 920c cc3f 3485 21bf 2d0c b8be 08f2 9e3e
00000090: 35a4 3c3f 4481 b93e 056f 3bbf c1ea dfbe
000000a0: 0ed8 f3bd 90d2 bf3f 7f8d 90bf ed73 853f
000000b0: 4f24 6a3e a3c8 cbbe de80 b43f 7f40 363f
000000c0: fc08 1c3f 3896 853f d65a 193f d279 b7be
000000d0: a4d2 423f 0f07 f43f 58e3 51bf 49a9 a8bf
000000e0: e26a 0fbf c966 48be 45f6 9b3f 01e6 16be
000000f0: 7d12 073d a189 dc3e c297 c0bd b4c4 aa3f
00000100: 4ec6 dabc 77aa 59bd 8f73 a3bd 41c8 a5bf
00000110: 74a6 9d3d dd29 b5bd 205b f5be b7b1 febe
00000120: 7c98 643e 8992 8bbf 42c4 9dbd d76d 473a
00000130: 05ac 00bf b57d e5bf 6dc1 053f e058 c6bf
00000140: 7efb 72be 29d5 2a3f ca52 aebe f075 4fbf
00000150: d5ff 26be 8a4a a6bd 026d bbbe 51b3 4e3e
00000160: 28ce 4f3f 7b6c be3e 6149 8ebc 0423 30bd
00000170: d98d 6fbe 660f c6bf 02ee 2fbe 2e5b 58bf
00000180: 91d7 efbd 62a5 7f3d 9647 43be 15bb 933f
00000190: dea3 9abd 71c9 f93e 39f5 65be 1865 7f3f
000001a0: 110b 743e 3300 66bb 0351 173f 13e9 fdbe
000001b0: 9d33 9fbe 76ae 21bf e7c0 4ebe 8c1d 0e3f
000001c0: 6116 0fbe 6af4 96bf e078 f2bf e34a f5be
000001d0: 27fb 943f f425 bebf 6fcc fc3e 2e80 09bf
000001e0: ad2f a7bf 9141 1a3f e055 033f d870 d63d
000001f0: 9399 c0be 1d6f 2ec0 ce10 753c b35a f43f
00000200: a447 b03f 18ec 1abf 2f6b 4d3f dbf2 273e
00000210: 55f9 163f 9b7c 963f afd4 c9bb 1783 753f
00000220: 3774 353f 280e 65bf f6e1 dbbe 1451 dbbe
00000230: fe28 7f3e d2e3 bc3f 11ee 9bbd bab7 91bf
00000240: 7392 e83f 305f bb3e 57ff 68bb 9258 a7be
00000250: 33b5 413f 2012 9a3e ec1f 033f 4a2a 07be
00000260: 7e2e 01be 83f3 453f c12d adbc 8ff1 563f
00000270: d109 19be 674f 21bd 3afe ac3f cb3d 24bd
00000280: f35c fcbe f99d 2b3f ef62 90bd 9d92 8c3f
00000290: 4ee5 433e 97a5 0dbe ea3a 4d3f cb54 293e
000002a0: f075 86be 6a19 f3bf 64e5 56bf aed5 2d3f
000002b0: d3ef 4a3f 7375 29bd c52f 7abe 4545 c63f
000002c0: c932 5fbe e27b ec3f d447 2c3f 6aba a1be
000002d0: 79e5 f2be a366 8f3f 9462 a4be 73ff 0b3f
000002e0: 868c 41bd 952a e43e 6d69 2bbe c016 e43d
000002f0: 28e7 863f 9b76 c93f 1ad7 bfbe e591 dbbd
00000300: c44f 7ebe d492 6abf 0330 84bd 03ed 69bd
00000310: d39b 3e3f b8ca 61be bfe7 8abc eadd d8bf
00000320: 6e21 3b3e 8a91 f5bf aca8 0d3e 7e53 903e
00000330: ca54 bb3f c250 5b3f dd1c 913f fb29 adbf
00000340: 590a c4be cce9 32bf 57cb 54bf 434e 3b3c
00000350: 42ae 0f40 a3dd 01c0 13ab 5b3f 2f36 bfbf
00000360: 8362 843f 999d ba39 ccd6 a6bc 3539 44bf
00000370: ba7d 4ebe 88a3 d43e 5d87 57bd 950f c6bd
00000380: fa84 a13f f943 cf3f 94f4 123f 4482 0dbf
00000390: 7099 0340 56ee 33be f6ff 2d3f 0289 933f
000003a0: 2166 92bf ebc1 323f c8f6 48be de75 bb3e
000003b0: 8d0b 9b3f f628 653f 1493 743e b562 913e
000003c0: e7a4 ec3d 9e44 763f d307 08bf 0ac7 573e
000003d0: c9bd af3f 9680 e0be 3b4c 1f3d 6400 8ebf
000003e0: 475d 59bd f379 b53e 91ab 333f c143 803e
000003f0: 730a a13c 77c4 2cbf 4108 98be ac95 903e

layers.0.mods.buy.fc_neigh.weight f4 [64, 1]
0.34010148 -0.17572926 -0.47030482 0.25819567 0.08800172 0.016427489 -0.20780276 -0.006956159
0.21565595 0.25454298 -0.40339687 0.24290736 -0.11198551 -0.24374798 0.3547522 0.3035116
0.10663542 0.3374469 0.21267186 -0.25630102 0.23661315 0.08278318 -0.20039283 0.40650073
0.14775003 -0.21376617 0.23947036 -0.3655562 0.03341388 -0.03197482 -0.37168476 0.21548578
0.21329786 0.12739833 0.033862446 -0.3021916 -0.066866934 -0.39004898 -0.38615233 0.14567474
-0.28656405 0.23940578 0.15536696 -0.08270689 0.27152494 0.3055956 -0.008137268 -0.2687805
0.30294406 0.028621377 0.1123835 0.37760752 -0.23833878 0.40244645 0.21259202 -0.18858823
-0.11750683 0.22698785 -0.5560123 0.313459 -0.119094566 0.019256895 0.2506691 0.11004634
00000000: c821 ae3e 5ff2 33be cbcb f0be 3932 843e
00000010: 3f3a b43d f192 863c 3fca 54be 7ef0 e3bb
00000020: ead4 5c3e 7553 823e 098a cebe b5bc 783e
00000030: a958 e5bd 1299 79be 15a2 b53e df65 9b3e
00000040: ac63 da3d d7c5 ac3e a7c6 593e e339 83be
00000050: b84a 723e 3a8a a93d c733 4dbe dd20 d03e
00000060: c94b 173e 85e5 5abe b837 753e 2f2a bbbe
00000070: fedc 083d 07f8 02bd 774d bebe 4ea8 5c3e
00000080: c16a 5a3e b574 023e 59b3 0a3d dbb8 9abe
00000090: 88f1 88bd 80b4 c7be c2b5 c5be c22b 153e
000000a0: 86b8 92be ca26 753e 8418 1f3e 3b62 a9bd
000000b0: 5105 8b3e 0777 9c3e 2d52 05bc 999d 89be
000000c0: 7c1b 9b3e 6177 ea3c 5229 e63d c655 c13e
000000d0: 150f 74be 760d ce3e b9b1 593e 461d 41be
000000e0: 6ca7 f0bd 816f 683e d256 0ebf b37d a03e
000000f0: dae7 f3bd a3c0 9d3c b357 803e fa5f e13d

layers.0.mods.buy.fc_self.weight f4 [64, 111]
0.04494154 0.10898218 0.11531869 0.0012028744 0.0099082915 0.093047254 0.25957716 -0.019354751
0.01449939 0.053415913 0.0011294492 0.22788322 -0.0027625072 -0.020298464 -0.0505858 -0.006190066
-0.00820352 0.06661991 0.061386667 0.09838387 -0.21949917 -0.16479701 0.022356471 0.15715557
0.048709787 -0.004023373 0.0036806746 -0.055351116 0.10220306 0.16896002 -0.005322887 -0.0077653145
-0.1098142 0.041029535 -0.027635295 -0.05064162 0.100591145 0.02755297 0.035898775 0.024384012
-0.008349585 -0.01580036 -0.024008056 -0.018630031 0.025220443 0.09573475 0.1653195 0.0036603156
-0.16448312 -0.0040404885 -0.0019141576 0.15011893 0.0009272389 0.019701568 0.030827077 0.05791353
0.04980096 -0.01261356 -0.009820641 -0.045854732 -0.026103297 -0.035051595 0.021293445 -0.003044226
-0.20571725 0.012790708 -0.047480162 -0.01264045 0.002366526 0.0015824795 0.023317115 0.014055939
-0.04157329 -0.0018989493 -0.00034535592 0.03771237 0.21080758 -0.058100507 -0.029794954 0.00023642936
-0.06472841 0.24660929 -0.04657306 0.03871124 0.016702564 -0.12240567 0.11440345 0.008919176
-0.027558085 0.08562841 0.0048304102 -0.0012026647 0.035225775 -0.06177088 -0.0013970287 0.010920489
0.0038775215 0.15497026 -0.04300133 -0.027212435 -0.08160893 0.02700349 0.054383945 0.026473785
0.020611873 0.009076937 -0.17713815 -0.016455207 -0.15211107 -0.0009708071 -0.084499024 0.02813862
-0.29117167 -0.09851993 0.026558187 -0.022514017 0.029505294 -0.11876995 0.0016532612 0.010132654
-0.20037803 0.028518679 -0.22588187 0.10782725 -0.020349596 -0.25771376 0.006300196 0.023099154
-0.0693547 0.021404639 0.190585 -0.17039874 0.12542322 0.00022791537 0.057975985 0.023261763
-0.015894696 0.005055692 -0.023960844 -0.27121562 -0.13394926 0.016970579 -0.046229087 -0.018234462
-0.031189626 -0.025919734 0.13221352 -0.07081069 -0.040333193 0.16562545 0.01883613 0.025651101
0.019730574 0.1625422 0.2771063 0.009403393 -0.04712071 -0.19471112 0.025278552 -0.10370663
0.027632896 -0.0064798933 0.06437884 -0.033842463 -0.0022639923 0.011800825 0.02012897 0.041317407
-0.009407197 -0.028354786 -0.021611609 -0.016911047 -0.022969415 0.001060231 -0.026906397 -0.26595828
-0.0009068862 0.029983666 -0.02755815 0.027660891 0.0026308817 -0.0018720026 -0.074268796 -0.01914235
0.027408767 -0.026893022 -0.027340066 -0.1308183 -0.02523948 -0.027592126 0.027567826 -0.049142756
0.27223426 0.02338397 -0.06620743 -0.0018927109 0.11820783 -0.13612847 0.027621465 -0.044976935
-0.14629382 0.024312738 -0.00090895675 -0.010438217 0.16420877 -0.06370037 0.01699444 -0.004777691
0.07923156 0.061854757 0.030891389 0.14349765 -0.016978605 0.1219622 -0.02613516 -0.027136536
0.0015299222 -0.10247772 0.044925302 0.04358084 0.025276652 -0.13414086 -0.15611519 -0.10135131
0.046375494 -0.027128587 0.020880139 0.13912825 -0.25945577 0.004624138 0.026632411 -0.1140362
-0.027537024 0.16871808 0.23573186 -0.06337594 0.28663397 0.0007417906 0.040910546 -0.019428276
-0.038342766 0.38543648 0.11761715 -0.112426214 -0.004478419 -0.010043507 0.004688544 0.027084507
-0.0016544514 -0.005020059 0.11276321 0.0042755306 0.004283743 -0.027453385 -0.077070266 -0.059892174
00000000: 9f14 383d 0d32 df3d 352c ec3d c4a9 9d3a
00000010: 6356 223c 8f8f be3d 4ce7 843e db8d 9ebc
00000020: d98e 6d3c a5ca 5a3d 070a 943a 385a 693e
00000030: 2e0b 35bb f748 a6bc 0e33 4fbd 0ad6 cabb
00000040: 0f68 06bc 0570 883d 9670 7b3d 7c7d c93d
00000050: 64c4 60be 8cc0 28be eb24 b73c 64ed 203e
00000060: ea83 473d 80d6 83bb 7937 713b dab7 62bd
00000070: d74f d13d db03 2d3e 9d6b aebb 2e74 febb
00000080: 44e6 e0bd 960e 283d 6a63 e2bc 966d 4fbd
00000090: bb02 ce3d c4b6 e13c 980a 133d fbc0 c73c
000000a0: b3cc 08bc c26f 81bc 8bac c4bc 029e 98bc
000000b0: 1a9b ce3c 9510 c43d 8449 293e e8e1 6f3b
000000c0: 436e 28be 1366 84bb 79e4 faba c7b8 193e
000000d0: f311 733a 2f65 a13c 1189 fc3c bd36 6d3d
000000e0: 17fc 4b3d 1ba9 4ebc c1e6 20bc 2cd2 3bbd
000000f0: 95d6 d5bc 4392 0fbd 976f ae3c a381 47bb
00000100: 8ba7 52be 1e90 513c 8f7a 42bd e419 4fbc
00000110: b817 1b3b 336b cf3a 8903 bf3c e24a 663c
00000120: c148 2abd 2ae6 f8ba e310 b5b9 4978 1a3d
00000130: f1dd 573e ccfa 6dbd 8c14 f4bc 06ea 7739
00000140: 5490 84bd 2587 7c3e 65c3 3ebd ad8f 1e3d
00000150: d1d3 883c d3af fabd 5b4c ea3d bc21 123c
00000160: 7ec1 e1bc f35d af3d 6b48 9e3b bba2 9dba
00000170: e748 103d 7603 7dbd 811c b7ba daeb 323c
00000180: 041e 7e3b 86b0 1e3e 2a22 30bd 9dec debc
00000190: 9522 a7bd 6c36 dd3c b3c1 5e3d 8ddf d83c
000001a0: 3bda a83c 6fb7 143c b463 35be 12cd 86bc
000001b0: 01c3 1bbe c37d 7eba d30d adbd f782 e63c
000001c0: 7414 95be d1c4 c9bd 8e90 d93c 516f b8bc
000001d0: 16b5 f13c a93d f3bd 3eb2 d83a 6e03 263c
000001e0: e62f 4dbe 01a0 e93c 944d 67be 89d4 dc3d
000001f0: 32b4 a6bc 0ff3 83be e071 ce3b 703a bd3c
00000200: d609 8ebd c858 af3c b728 433e 027d 2ebe
00000210: f26e 003e 91fc 6e39 3a78 6d3d 748f be3c
00000220: 9835 82bc 38aa a53b 8849 c4bc c6dc 8abe
00000230: ff29 09be e205 8b3c b65a 3dbd 7060 95bc
00000240: 6381 ffbc 9f55 d4bc fb62 073e 3205 91bd
00000250: 6b34 25bd b899 293e 3a4e 9a3c 4222 d23c
00000260: 03a2 a13c 7671 263e e1e0 8d3e b010 1a3c
00000270: a501 41bd 5a62 47be f714 cf3c 2464 d4bd
00000280: 625e e23c 4955 d4bb 0ed9 833d 659e 0abd
00000290: 7d5f 14bb 3f58 413c 82e5 a43c 713c 293d
000002a0: a520 1abc 4c48 e8bc d40a b1bc 0989 8abc
000002b0: 5b2a bcbc 73f7 8a3a ce6a dcbc af2b 88be
000002c0: 1abc 6dba 4ea0 f53c a1c1 e1bc 1899 e23c
000002d0: df6a 2c3b fc5d f5ba 3d1a 98bd 6bd0 9cbc
000002e0: 5a88 e03c c14e dcbc 46f8 dfbc 3cf5 05be
000002f0: 07c3 cebc e208 e2bc ecd5 e13c ea49 49bd
00000300: 4a62 8b3e bd8f bf3c c397 87bd d714 f8ba
00000310: f216 f23d 4365 0bbe 6946 e23c bc39 38bd
00000320: 0cce 15be 822b c73c 0e47 6eba 0e05 2bbc
00000330: 5826 283e 5775 82bd ed37 8b3c 2d8e 9cbb
00000340: 2844 a23d 6a5b 7d3d f00f fd3c 0cf1 123e
00000350: b716 8bbc 51c7 f93d 6719 d6bc 714d debc
00000360: ac87 c83a d7df d1bd 9803 383d d381 323d
00000370: fb10 cf3c 395c 09be a9dc 1fbe 4791 cfbd
00000380: 3bf4 3d3d c53c debc d30c ab3c a377 0e3e
00000390: 63d7 84be 1586 973b 372c da3c d08b e9bd
000003a0: 5395 e1bc 6fc4 2c3e b163 713e 3fcb 81bd
000003b0: b0c1 923e b974 423a d191 273d 0c28 9fbc
000003c0: 4e0d 1dbd ee57 c53e 43e1 f03d b73f e6bd
000003d0: b4bf 92bb 868d 24bc 5ca2 993b 54e0 dd3c
000003e0: 2dda d8ba 4f7f a4bb 66f0 e63d c019 8c3b
000003f0: a45e 8c3b ece5 e0bc 04d7 9dbd 7f51 75bd

layers.0.mods.buy.fc_self.bias f4 [64]
-0.04157623 -0.04212466 0.023530113 -0.114331 -0.07147343 -0.038957927 -0.17664878 -0.100480475
-0.08043877 -0.13497074 0.046014197 -0.024194183 -0.033219542 -0.005030711 -0.087284446 -0.0019129004
-0.10257331 -0.059890017 -0.050260417 -0.096886694 -0.0045833834 0.021388754 -0.025714282 -0.10815092
-0.038937315 -0.0057403776 0.06381038 0.082599916 0.036233056 0.07888896 0.0003520236 -0.13538836
0.05090227 -0.060478847 0.05715845 0.007789056 0.023085227 -0.08620353 -0.029368736 -0.15402676
-0.007104791 -0.053953607 -0.09794635 -0.0032544087 -0.11479535 -0.13482946 -0.12163628 -0.07800156
0.006290082 0.0022673698 -0.10907273 0.014296627 -0.08949991 0.052070573 -0.060142685 -0.071835205
-0.19129021 -0.14284115 0.026058024 -0.119118534 -0.08357379 -0.1032225 0.0071368106 0.011865127
00000000: d64b 2abd e88a 2cbd 39c2 c03c 5f26 eabd
00000010: a960 92bd 5992 1fbd 6be3 34be b5c8 cdbd
00000020: 15bd a4bd c535 0abe 6279 3c3d e132 c6bc
00000030: 3711 08bd aad8 a4bb 30c2 b2bd 49ba faba
00000040: f511 d2bd 3c4f 75bd dedd 4dbd 886c c6bd
00000050: 3530 96bb 7837 af3c c2a6 d2bc 3b7e ddbd
00000060: bc7c 1fbd c719 bcbb 04af 823d 252a a93d
00000070: 1d69 143d 8990 a13d cf8f b839 3fa3 0abe
00000080: e67e 503d abb8 77bd fb1e 6a3d 563b ff3b
00000090: 3b1d bd3c 7a8b b0bd b496 f0bc 31b9 1dbe
000000a0: 4ecf e8bb 75fe 5cbd 1998 c8bd eb47 55bb
000000b0: d319 ebbd bc10 0abe 711c f9bd 48bf 9fbd
000000c0: 081d ce3b 2798 143b 8661 dfbd 663c 6a3c
000000d0: bb4b b7bd f447 553d 2d58 76bd 561e 93bd
000000e0: 95e1 43be f344 12be a377 d53c 6bf4 f3bd
000000f0: bc28 abbd 5166 d3bd e8db e93b f365 423c

layers.0.mods.sell.fc_neigh.weight f4 [64, 1]
0.46704966 0.38232037 -0.2044937 0.07117994 0.15184565 0.14372866 -0.17302032 -0.14633678
0.33705798 -0.20280564 -0.13742475 -0.15642817 0.13676694 -0.21794988 0.029193304 -0.29827192
0.028086903 0.043514334 -0.2674256 0.17747065 -0.20661606 -0.014731604 0.022942811 -0.3177649
-0.09439667 0.26003277 -0.26032802 -0.124491215 -0.26748922 -0.1345741 -0.45672444 -0.04246579
-0.38655794 0.10972345 0.26709816 0.41089132 -0.03095342 0.11332544 0.077408426 0.25328213
-0.1949909 0.31484118 0.38965914 0.30620772 -0.009435267 0.15069868 -0.029483229 -0.09713539
-0.27135336 0.2994627 0.0040815813 -0.00038412295 -0.087496854 0.0051965555 0.020381583 -0.26562414
-0.27654335 -0.13808101 -0.057331245 0.049684495 -0.36168033 0.19883989 -0.09452233 0.3038754
00000000: 2221 ef3e 7fbf c33e cc66 51be cac6 913d
00000010: 6d7d 1b3e 9b2d 133e 3d2c 31be 4fd9 15be
00000020: dd92 ac3e 48ac 4fbe 13b9 0cbe b52e 20be
00000030: a20c 0c3e 412e 5fbe cc26 ef3c 19b7 98be
00000040: 8116 e63c 163c 323d 02ec 88be deba 353e
00000050: 2993 53be d35c 71bc 90f2 bb3c 15b2 a2be
00000060: 0b53 c1bd 0423 853e b749 85be 40f5 febd
00000070: 59f4 88be cbcd 09be c9d7 e9be 9cf0 2dbd
00000080: ecea c5be b0b6 e03d 17c1 883e 5960 d23e
00000090: 0792 fdbc 2b17 e83d 4f88 9e3d 32ae 813e
000000a0: b2ab 47be dd32 a13e 6781 c73e 42c7 9c3e
000000b0: 6196 1abc c150 1a3e d086 f1bc ebee c6bd
000000c0: d4ee 8abe 2d53 993e c9be 853b 1c64 c9b9
000000d0: 8d31 b3bd de47 aa3b 47f7 a63c e3ff 87be
000000e0: 1797 8dbe 1c65 0dbe 2bd4 6abd f881 4b3d
000000f0: 2a2e b9be af9c 4b3e ec94 c1bd 8e95 9b3e

layers.0.mods.sell.fc_self.weight f4 [64, 111]
-0.05271199 -0.26601145 -0.06758732 0.0023027447 0.02388908 0.19861977 -0.038027428 -0.0033647015
-0.012937875 0.11078587 0.064077094 0.054768007 -0.022030255 -0.0019256115 -0.062422086 -0.027657866
-0.009913712 -0.023346938 0.020303566 0.009871146 0.12616639 -0.006060941 0.037198175 0.07099462
-0.008375145 0.021617094 0.056618568 0.013698703 0.0069902376 0.13836671 -0.009993702 0.013437221
0.20035088 -0.02454609 0.0037161624 0.021006184 0.03711423 0.012605513 0.10479146 0.009710924
0.026885914 0.002527904 0.07611418 -0.043195084 0.027192097 -0.048733898 0.0038140388 -0.025737746
-0.06130699 -0.0065856534 -0.1056849 -0.24726233 0.04266319 0.009265582 -0.001348759 -0.024417842
-0.004836721 -0.0086883 -0.025725478 0.012445994 0.00010675008 -0.0029622011 -0.005493814 0.02877818
0.10264792 -0.022739638 -0.024874398 0.0060993815 0.015228512 0.011452469 -0.027017554 -0.12013752
0.060366366 -0.039309878 0.011997619 0.001905037 -0.19480301 0.041627087 -0.01656244 -0.008832218
0.018794829 0.120169364 -0.0037068445 0.16932799 -0.007865811 0.09038627 -0.16760352 -0.04267766
-0.013928626 -0.03816738 -0.063120015 -0.022042587 -0.030579781 0.1450014 -0.054323353 -0.008045362
-0.004153629 -0.15878321 0.022657547 0.022975812 0.15241176 -0.0090791145 0.0018714949 0.013278575
-0.004556544 0.0022477908 0.26542526 0.022777487 0.17989157 0.00096807204 -0.07771239 0.05831026
0.06705299 -0.16870968 -0.03647986 -0.008567865 0.13336492 0.11089448 0.1080009 0.018016756
0.113266766 0.056520917 0.22557713 -0.21998669 0.02294797 -0.01709125 -0.009706466 -0.009234374
0.051803585 0.0019046428 0.010751517 -0.04814724 -0.17505376 0.007522667 -0.11580741 0.0748262
0.016319504 -0.027650123 0.0041764155 0.123413175 0.13956036 0.07281596 0.00025759402 0.22267598
-0.006576966 -0.033569727 0.01182288 -0.058352415 0.025505373 -0.06244243 0.026994718 -0.0068761567
-0.027672475 -0.13340485 0.3307528 -0.02244476 0.0078596985 0.1450714 0.025092922 -0.14401446
0.02647953 0.13698581 0.16788203 -0.021718737 -0.02252279 0.0018556177 -0.009749915 0.0026878123
0.017044114 0.0029469535 0.026749756 0.0004972888 -0.010336558 0.010457973 0.026585646 0.12137701
0.056417394 0.02543607 -0.05513907 0.007390053 -0.005313474 -0.02761914 0.338111 -0.044948958
-0.07366326 0.004086304 0.011588696 1.6523061e-05 -0.02042966 -0.015136737 0.024213172 0.0014284054
-0.11006022 -0.019021694 -0.18560618 -0.04683834 -0.0774855 0.2479292 0.02295463 0.02403956
0.19188492 0.01781471 0.071963474 -0.0680033 0.22551687 0.005004873 -0.028679827 0.072438456
-0.06703104 -0.02755351 -0.042773012 -0.19658385 -0.00028551163 -0.062327854 -0.057314545 0.02144179
0.027672796 0.1606041 -0.051714335 -0.12828405 -0.026212782 0.061391804 -0.040734872 0.11209167
0.119659886 0.026305841 -0.028355865 -0.002897145 0.071316235 0.23023546 0.00043980882 0.1961643
-0.027832527 0.1861937 0.19589737 -0.005863608 0.19861072 0.0024392812 0.06710683 -0.024568385
0.033096664 -0.0021533547 -0.015904387 0.09540124 -0.021042338 0.2862773 -0.012050495 0.026113212
0.023040848 0.026157891 0.064661466 0.012334897 -0.040214904 0.0035031051 0.119297795 -0.07531712
00000000: 87e8 57bd a732 88be 396b 8abd a5e9 163b
00000010: 08b3 c33c fb62 4b3e a6c2 1bbd 5382 5cbb
00000020: 62f9 53bc b4e3 e23d da3a 833d 6b54 603d
00000030: cb78 b4bc cd64 fcba 4dae 7fbd c092 e2bc
00000040: 1f6d 22bc 1442 bfbc aa53 a63c 96ba 213c
00000050: c331 013e dc9a c6bb 1d5d 183d a165 913d
00000060: e737 09bc 5516 b13c dfe8 673d 8670 603c
00000070: 5d0e e53b 01b0 0d3e a0bc 23bc ca27 5c3c
00000080: c828 4d3e e214 c9bc dc8a 733b 2915 ac3c
00000090: 1705 183d 5b87 4e3c e89c d63d 911a 1f3c
000000a0: d93f dc3c 31ab 253b c0e1 9b3d 54ed 30bd
000000b0: f6c1 de3c 329d 47bd f4f4 793b f7d7 d2bc
000000c0: 0a1d 7bbd 77cc d7bb 5371 d8bd 5632 7dbe
000000d0: 99bf 2e3d abce 173c d8c8 b0ba ed07 c8bc
000000e0: 5b7d 9ebb 5f59 0ebc 3dbe d2bc 48ea 4b3c
000000f0: 03df df38 7d21 42bb 7405 b4bb 38c0 eb3c
00000100: 1339 d23d 7a48 babc 65c5 cbbc 52dd c73b
00000110: 0281 793c 23a3 3b3c eb53 ddbc a90a f6bd
00000120: b942 773d 6503 21bd a991 443c 6fb2 f93a
00000130: 717a 47be 2a81 2a3d f4ad 87bc 02b5 10bc
00000140: 9df7 993c 5b1b f63d 88ee 72bb 5164 2d3e
00000150: 9adf 00bc 701c b93d 42a0 2bbe c5ce 2ebd
00000160: e434 64bc 6655 1cbd 1145 81bd a892 b4bc
00000170: 7382 fabc 3f7b 143e 2a82 5ebd b2d0 03bc
00000180: 2a1b 88bb 1198 22be 529c b93c c537 bc3c
00000190: d411 1c3e 91c0 14bc f34c f53a 618e 593c
000001a0: 104f 95bb ac4f 133b d2e5 873e da97 ba3c
000001b0: 7f35 383e 37c6 7d3a ac27 9fbd bdd6 6e3d
000001c0: 1453 893d 3bc2 2cbe e86b 15bd 3b60 0cbc
000001d0: d090 083e a51c e33d 932f dd3d e097 933c
000001e0: 68f8 e73d 7a82 673d b1fd 663e 3144 61be
000001f0: 62fd bb3c f302 8cbc df07 1fbc c64b 17bc
00000200: ff2f 543d 35a5 f93a 2127 303c 0a36 45bd
00000210: 4b41 33be b480 f63b 6f2c edbd 7b3e 993d
00000220: 7bb0 853c 8382 e2bc 50da 883b 0cc0 fc3d
00000230: e9e8 0e3e 8920 953d af0d 8739 2c05 643e
00000240: 9783 d7bb 6980 09bd c1b4 413c f102 6fbd
00000250: a5f0 d03c a2c3 7fbd 0724 dd3c 6251 e1bb
00000260: 63b1 e2bc 489b 08be 6e58 a93e 13de b7bc
00000270: f7c5 003c 998d 143e ac8f cd3c 8778 13be
00000280: 99eb d83c 0246 0c3e 44e9 2b3e 7eeb b1bc
00000290: b781 b8bc 3338 f33a 1cbe 1fbc 0226 303b
000002a0: 19a0 8b3c ad21 413b 4e22 db3c 7d5c 023a
000002b0: ab5a 29bc eb57 2b3c 24ca d93c 8394 f83d
000002c0: ed15 673d 4e5f d03c 81d9 61bd 4228 f23b
000002d0: a71c aebb 8941 e2bc e31c ad3e 661c 38bd
000002e0: c3dc 96bd 67e6 853b 84de 3d3c 019b 8a37
000002f0: 1a5c a7bc 1400 78bc b45a c63c 5539 bb3a
00000300: 4167 e1bd 62d3 9bbc 8c0f 3ebe 8fd9 3fbd
00000310: b8b0 9ebd 27e1 7d3e 590b bc3c 9dee c43c
00000320: 7b7d 443e 28f0 913c 9661 933d 5045 8bbd
00000330: e5ed 663e ebff a33b f5f1 eabc 9d5a 943d
00000340: 9247 89bd e6b7 e1bc c132 2fbd 474d 49be
00000350: b9b0 95b9 7e4b 7fbd a8c2 6abd b1a6 af3c
00000360: 0fb2 e23c 6775 243e 69d2 53bd e55c 03be
00000370: 30bc d6bc f975 7b3d 9cd9 26bd 5190 e53d
00000380: 3e10 f53d 597f d73c 8f4a e8bc 07de 3dbb
00000390: 3f0e 923d d8c2 6b3e 2496 e639 4bdf 483e
000003a0: 0a01 e4bc 90a9 3e3e 5299 483e 8223 c0bb
000003b0: 9c60 4b3e 59dc 1f3b 4e6f 893d a343 c9bc
000003c0: 5e90 073d 4c1f 0dbb eb49 82bc ba61 c33d
000003d0: fb60 acbc f092 923e 706f 45bc 60eb d53c
000003e0: 29c0 bc3c 1349 d63c 3b6d 843d 4f18 4a3c
000003f0: 62b8 24bd 5a94 653b 6752 f43d dd3f 9abd

layers.0.mods.sell.fc_self.bias f4 [64]
-0.09834805 -0.049700152 -0.09681208 -0.05538176 0.031051408 -0.08649443 -0.063120656 -0.17873545
-0.031221556 0.025818605 -0.08427818 -0.013108645 -0.1802519 -0.008047735 0.027806751 -0.16847332
-0.010720585 -0.032047775 -0.08555621 0.011220751 -0.067387626 -0.0023991612 -0.008822427 -0.12569512
-0.13245587 -0.09697888 -0.025048466 -0.033635147 0.007429077 -0.08701151 -0.09573423 -0.034575973
-0.058692023 -0.075919695 0.046997543 -0.020399198 -0.0689275 0.055938624 -0.060895834 -0.076922156
0.004936498 -0.07083126 -0.046914946 -0.10746073 -0.12855813 -0.09906423 -0.04700636 -0.086535946
0.003369036 0.035833985 -0.056070153 -0.11062691 -0.08133794 0.08011327 -0.0007483369 -0.02206376
-0.040760893 -0.039060336 0.047547698 -0.02165235 0.07847293 -0.06043808 -0.14720595 0.02958874
00000000: b46a c9bd 6392 4bbd 6945 c6bd fcd7 62bd
00000010: 865f fe3c fe23 b1bd 6745 81bd 6d06 37be
00000020: 59c4 ffbc 8a81 d33c 0a9a acbd a4c5 56bc
00000030: f493 38be a6da 03bc fcca e33c 4584 2cbe
00000040: 64a5 2fbc 8744 03bd 1838 afbd 3ed7 373c
00000050: 8602 8abd 3f3b 1dbb f18b 10bc 39b6 00be
00000060: 83a2 07be dd9c c6bd 7132 cdbc 02c5 09bd
00000070: 9d6f f33b 1733 b2bd 4f10 c4bd 899f 0dbd
00000080: 0c67 70bd c97b 9bbd 7f80 403d 381c a7bc
00000090: dc29 8dbd e61f 653d e96d 79bd 5d89 9dbd
000000a0: 59c2 a13b fb0f 91bd e329 40bd 5f14 dcbd
000000b0: bea4 03be 30e2 cabd be89 40bd c239 b1bd
000000c0: 0bcb 5c3b a8c6 123d d1a9 65bd 5d90 e2bd
000000d0: 8294 a6bd 6d12 a43d 0a2c 44ba 0fbf b4bc
000000e0: e5f4 26bd bbfd 1fbd 60c1 423d 4560 b1bc
000000f0: 6ab6 a03d ec8d 77bd 28bd 16be 1664 f23c

layers.0.mods.bought.fc_neigh.weight f4 [64, 111]
-0.296899 0.0040357667 -0.14542133 0.06012844 0.017089153 0.30077782 0.11095232 -0.15642281
-0.043899532 -0.08540976 0.049777552 -0.2170928 -0.27602267 -0.026834974 -0.18499127 -0.018585239
-0.010552806 0.0018977764 0.04948182 -0.11244692 0.20579326 0.20459265 -0.023050893 -0.18526971
-0.00074915873 0.033988338 0.007344556 0.011119716 -0.12290454 0.33508998 -0.014763056 0.010811052
-0.02360301 0.0007166854 0.023672884 -0.029448131 -0.19868702 -0.0091896625 -0.21857998 -0.028475787
0.0005786113 -0.057792053 -0.09077843 -0.26398593 0.013893416 0.06481017 0.14523478 -0.03297278
0.21933 -0.022853427 0.117120326 0.28601092 0.01273151 0.02427425 -0.0037946333 0.019435544
0.004496652 0.026065722 0.0010807766 -0.0041926955 0.016077407 -0.018801363 -0.01172001 0.00013882863
0.291544 -0.047637694 0.012974451 0.040546294 0.0042311605 0.02414079 -0.013942432 -0.11064024
-0.008978233 -0.013881398 -0.025981037 -0.006673973 0.2196466 -0.008322418 0.007361282 -0.04153669
-0.024231844 0.018853046 -0.015906446 -0.08093366 0.015747061 0.15459678 0.06584026 -0.0015376441
0.002688564 -0.11795315 -0.04866241 -0.011696322 0.006094652 -0.13892402 0.025489364 0.07084868
-0.023145204 0.28470096 0.0045701973 0.02183525 -0.18293539 -0.053074952 -0.15221915 0.026907237
0.027249385 -0.016209483 -0.3319538 0.024567619 -0.11466491 0.0026030217 -0.09657623 -0.015121634
-0.09024611 0.17302826 0.005535909 0.01248716 0.008781969 0.23216012 -0.10425221 -0.0003273466
-0.1915188 -0.07354833 0.11148261 0.13777898 0.01601219 0.061582133 -0.012244901 0.03340464
-0.056057528 -0.076146714 0.25863102 -0.007106142 -0.058414336 0.014540554 0.0466627 -0.03859109
-0.0011498145 -0.027244667 0.0052425866 0.15091579 -0.023354098 0.0053967307 0.0073927655 -0.09118332
0.00092739967 -0.026705515 -0.03375685 0.05372598 -0.039931193 -0.025424639 0.043845907 0.07227413
0.028705144 0.09835928 -0.10606566 -0.02736689 -0.09396792 -0.110664375 -0.0047761556 0.2556228
-0.025912805 0.19186543 0.079443015 0.026254399 0.0036861289 0.00058577256 0.007367728 0.028755883
0.029079866 -0.017942438 0.0035830343 -0.00951246 -0.02560108 -0.00035006247 0.025737965 0.108953096
0.024234079 -0.025517154 0.008971815 0.01936903 0.021294624 -0.0048360755 0.3068781 0.12956496
0.018660596 -0.0750422 -0.029716037 0.009740061 -0.000817103 0.013898343 0.0136989895 0.0019158815
0.10201534 -0.0073303813 0.015127945 0.03782326 0.08471922 0.22366591 -0.0016288669 0.0024476862
-0.027235797 0.0002718023 0.0069025466 -0.027668994 0.17730974 -0.0727109 0.043492585 -0.0025940498
-0.017705394 -0.0570307 0.024082636 0.080336206 0.02547376 0.09145822 0.011025652 -0.011505899
0.052091327 0.23226856 -0.0047320337 -0.14478643 0.015557031 0.22819486 0.104164556 0.24849927
-0.24602601 -0.026913028 -0.00016537825 0.28983018 -0.18971469 -0.12552074 -0.027242294 -0.0072251786
-0.0139322905 -0.03764612 -0.12516797 -0.029788535 0.03561582 0.015667595 -0.027412735 -0.027604476
-0.056767598 -0.007569147 -0.034420013 0.26255214 -0.0011730008 -0.051828578 -0.03855809 -0.00929886
-0.006986252 -0.014744896 0.08624442 0.18834874 0.010310831 -0.022124143 -0.13565464 -0.056414127
00000000: 2503 98be 773e 843b 54e9 14be 3d49 763d
00000010: 8dfe 8b3c 8dff 993e f83a e33d 4d2d 20be
00000020: ffcf 33bd 50eb aebd 8ce3 4b3d 934d 5ebe
00000030: d852 8dbe 05d5 dbbc 5a6e 3dbe 1240 98bc
00000040: ade5 2cbc cfbe f83a 73ad 4a3d 924a e6bd
00000050: 78bb 523e bc80 513e 3ad5 bcbc 58b7 3dbe
00000060: 3163 44ba 5b37 0b3d 9aaa f03b 782f 363c
00000070: 60b5 fbbd ea90 ab3e bfe0 71bc d720 313c
00000080: 1a5b c1bc f1df 3b3a a3ed c13c 353d f1bc
00000090: 9c74 4bbe 3d90 16bc 6ed3 5fbe 0e46 e9bc
000000a0: f2ad 173a 5cb7 6cbd 0bea b9bd 2a29 87be
000000b0: 36a1 633c 32bb 843d 6db8 143e 770e 07bd
000000c0: 0b98 603e 1c37 bbbc c8dc ef3d 0670 923e
000000d0: d397 503c cbda c63c 62af 78bb 4a37 9f3c
000000e0: a758 933b c887 d53c d8a8 8d3a e162 89bb
000000f0: c4b4 833c 5105 9abc 4905 40bc 8792 1139
00000100: 4145 953e be1f 43bd cb92 543c df13 263d
00000110: 8ca5 8a3b e8c2 c53c cc6e 64bc 5a97 e2bd
00000120: 7019 13bc ce6e 63bc 2fd6 d4bc 58b1 dabb
00000130: 0aeb 603e c05a 08bc e936 f13b 6022 2abd
00000140: dc81 c6bc b471 9a3c 3c4e 82bc 8cc0 a5bd
00000150: fbff 803c 9e4e 1e3e 42d7 863d c68a c9ba
00000160: 9e32 303b 6c91 f1bd 3c52 47bd eea1 3fbc
00000170: a6b5 c73b 1942 0ebe 12cf d03c 1d19 913d
00000180: 039b bdbc 53c4 913e 98c1 953b d7df b23c
00000190: 6a53 3bbe 1f65 59bd 56df 1bbe 916c dc3c
000001a0: 1a3a df3c c0c9 84bc d9f5 a9be 0842 c93c
000001b0: 70d5 eabd 7597 2a3b c2c9 c5bd bbc0 77bc
000001c0: f4d2 b8bd 522e 313e 9266 b53b f296 4c3c
000001d0: 3fe2 0f3c 62bb 6d3e 2f82 d5bd b89f abb9
000001e0: 811d 44be 82a0 96bd ff50 e43d ef15 0d3e
000001f0: ff2b 833c 8c3d 7c3d d69e 48bc 4ed3 083d
00000200: 949c 65bd cff2 9bbd 496b 843e a4da e8bb
00000210: df43 6fbd 813b 6e3c 6321 3f3d b111 1ebd
00000220: 5fb5 96ba 3530 dfbc 01ca ab3b ab89 1a3e
00000230: 1851 bfbc 0fd7 b03b 033f f23b 52be babd
00000240: bd1c 733a 86c5 dabc 9f44 0abd c60f 5c3d
00000250: e48e 23bd 5547 d0bc c497 333d 7604 943d
00000260: 0d27 eb3c 9770 c93d f438 d9bd 8730 e0bc
00000270: 4172 c0bd 01a4 e2bd 4c81 9cbb fee0 823e
00000280: 1747 d4bc 5f78 443e 05b3 a23d 7713 d73c
00000290: fb92 713b 888e 193a fb6c f13b 7591 eb3c
000002a0: e638 ee3c 05fc 92bc 57d1 6a3b 26da 1bbc
000002b0: 5bb9 d1bc 9788 b7b9 6dd8 d23c cd22 df3d
000002c0: 8c86 c63c 5a09 d1bc 85fe 123c cdab 9e3c
000002d0: 1072 ae3c f177 9ebb 201f 9d3e adac 043e
000002e0: 1bde 983c baaf 99bd 0c6f f3bc c794 1f3c
000002f0: db32 56ba e0b5 633c ba71 603c 511e fb3a
00000300: 6bed d03d b233 f0bb 33db 773c 90ec 1a3d
00000310: 4581 ad3d ad08 653e b47f d5ba 5c69 203b
00000320: 9b1d dfbc b080 8e39 c22e e23b 16aa e2bc
00000330: af90 353e 74e9 94bd 4825 323d ef00 2abb
00000340: e70a 91bc 0699 69bd f348 c53c 4f87 a43d
00000350: 59ae d03c 724e bb3d f0a4 343c 3d83 3cbc
00000360: b75d 553d cfd7 6d3e 2d0f 9bbb e542 14be
00000370: ebe2 7e3c eaab 693e 3a54 d53d 9876 7e3e
00000380: 3eee 7bbe b678 dcbc 6369 2db9 9f64 943e
00000390: 9144 42be 8288 00be 3b2b dfbc 31c1 ecbb
000003a0: 4344 64bc d132 1abd 082c 00be 1607 f4bc
000003b0: e5e1 113d 5459 803c ac90 e0bc c822 e2bc
000003c0: 2485 68bd 9b06 f8bb 00fc 0cbd 3c6d 863e
000003d0: 60bf 99ba 344a 54bd 16ef 1dbd 3f5a 18bc
000003e0: eeec e4bb 9494 71bc eaa0 b03d 7ede 403e
000003f0: c2ee 283c b13d b5bc 0de9 0abe 8012 67bd

layers.0.mods.bought.fc_self.weight f4 [64, 1]
0.44845405 -0.22829232 0.21956803 0.11611249 -0.1403958 -0.35580334 0.241262 -0.26912582
0.15774038 -0.06479575 0.34742486 0.15445502 -0.07726257 -0.22612025 -0.068567745 0.06220699
0.25526655 0.1403098 -0.26301944 -0.071566865 -0.40734792 0.49341974 -0.31816074 0.2797106
0.2316521 -0.045752786 -0.16482459 0.23552981 0.11202065 0.14527208 0.08906362 -0.20006417
-0.32085848 -0.29256728 -0.13176832 -0.34899747 0.26437977 0.27791005 0.0007660072 -0.35423836
-0.12152805 0.3594017 0.2023272 -0.43252283 -0.16604604 0.10399025 0.07545205 0.09404793
-0.27706456 -0.16314729 0.1113023 0.036177278 -0.5056121 -0.10582872 -0.2907763 -0.23673259
-0.36155766 -0.33561733 0.10339447 0.26530606 -0.24957886 0.14811699 0.19012445 -0.18533768
00000000: c59b e53e 76c5 69be 71d6 603e 63cc ed3d
00000010: ebc3 0fbe db2b b6be 630d 773e dcca 89be
00000020: b286 213e a2b3 84bd ace1 b13e 7529 1e3e
00000030: d73b 9ebd 118c 67be 3f6d 8cbd c2cc 7e3d
00000040: 4cb2 823e 5fad 0f3e 7caa 86be a691 92bd
00000050: e88f d0be 83a1 fc3e f7e5 a2be 3a36 8f3e
00000060: 3536 6d3e 4667 3bbd c7c7 28be ba2e 713e
00000070: 156b e53d 34c2 143e fd66 b63d 9fdd 4cbe
00000080: 9047 a4be 61cb 95be 46ee 06be ccaf b2be
00000090: c95c 873e 3a4a 8e3e dfcd 483a bb5e b5be
000000a0: b3e3 f8bd 8003 b83e dd2e 4f3e a273 ddbe
000000b0: f907 2abe d7f8 d43d 9b86 9a3d 339c c03d
000000c0: 68db 8dbe 1510 27be 76f2 e33d a02e 143d
000000d0: cb6f 01bf babc d8bd a2e0 94be 076a 72be
000000e0: 161e b9be 09d6 abbe 7bc0 d33d 32d6 873e
000000f0: 9a91 7fbe fbab 173e fcaf 423e 29c9 3dbe

layers.0.mods.bought.fc_self.bias f4 [64]
-0.59058285 0.5781328 -0.4669822 0.43809682 0.48512772 -0.85196537 0.90416205 -0.11356997
0.57827795 -0.13527404 0.8907732 0.9422728 -0.63772184 -0.40272787 0.30753043 0.43911615
0.27300695 0.57162046 -0.2512582 -0.60962564 -0.5285297 -0.8148724 -0.8250758 0.53629863
-0.7406451 -0.077235155 -0.8431757 0.9736835 0.5125984 -0.4086053 0.3550377 -0.8941727
0.5053308 0.5857249 -0.8134703 -0.6809375 0.36924642 -0.034244105 -0.50583327 0.037638783
0.5894821 0.8615752 -0.4864901 0.21298207 -0.020002818 -0.5648079 0.9049359 -0.6195413
-0.39646617 -0.2595187 -0.9221737 0.6390141 0.42296678 0.08162274 -0.640206 0.43282768
0.061900314 0.354991 -0.23348221 -0.44089392 -0.008464611 -0.7706098 0.31050277 -0.29431078
00000000: 7030 17bf 8300 143f 4a18 efbe 3a4e e03e
00000010: a962 f83e 671a 5abf 2a77 673f 5f97 e8bd
00000020: 060a 143f 4785 0abe b609 643f ca38 713f
00000030: bd41 23bf 5932 cebe a174 9d3e d5d3 e03e
00000040: 91c7 8b3e b855 123f eaa4 80be 6d10 1cbf
00000050: b94d 07bf 7a9b 50bf 2b38 53bf de4a 093f
00000060: eb9a 3dbf 772d 9ebd 5dda 57bf 5243 793f
00000070: a639 033f b734 d1be 80c7 b53e 81e8 64bf
00000080: 5c5d 013f 11f2 153f 973f 50bf ec51 2ebf
00000090: de0d bd3e 8c43 0cbd 4a7e 01bf 202b 1a3d
000000a0: 4de8 163f 3190 5c3f 3b15 f9be f917 5a3e
000000b0: f3dc a3bc 4097 10bf e1a9 673f 429a 1ebf
000000c0: 9dfd cabe a3df 84be 9313 6cbf 6e96 233f
000000d0: 1a8f d83e d329 a73d 8ae4 23bf 979b dd3e
000000e0: 2f8b 7d3d 61c1 b53e f615 6fbe d9bc e1be
000000f0: 27af 0abc af46 45bf 38fa 9e3e e7af 96be

layers.0.mods.issued.fc_neigh.weight f4 [64, 111]
0.10975785 -0.1691748 0.009130839 -0.001523701 0.002324821 0.059135705 -0.05752542 -0.028987043
-0.006977896 0.221815 -0.06497839 0.076194726 0.106431894 -0.008649942 0.04569914 0.0509104
0.0008397543 0.025446938 -0.026434768 0.17227536 -0.07919652 0.09608508 -0.022882672 0.1948619
0.027205197 0.058879748 0.020438476 -0.0052675144 0.0806663 0.21344692 -0.0063713407 0.005433301
0.13507862 0.07143132 0.021434698 0.1498588 -0.24648477 0.0024574853 -0.050800752 -0.013474448
-0.010250861 0.0060708853 0.11120427 -0.13303809 0.042038023 0.2887723 0.25310254 0.009807718
-0.10922343 0.0568064 0.21986015 -0.15063769 0.0345385 0.04038593 -0.0019543672 0.0024611235
-0.003872813 0.056331977 0.011803333 0.010001456 -0.0034682653 0.052049864 -0.00067260314 -0.0020910443
-0.07602728 0.047537077 -0.0018568193 0.07495931 -0.024920747 0.025759054 -0.006951596 -0.08539218
0.30434617 -0.019010972 -0.015585853 -0.006748546 -0.1721897 -0.005812457 -0.05481327 0.027479932
-0.005948246 -0.09344105 -0.004786378 0.001342117 -0.02114167 -0.06662349 -0.09221594 -0.023618558
0.009662386 0.1964606 -0.04498657 0.019506125 0.02273351 0.24737088 0.0052858302 0.0049345167
-0.024848867 0.24482448 0.027589487 0.010130234 0.12585446 -0.0021926411 -0.060115445 0.009699526
0.04100936 0.026846617 0.020115638 0.018407954 0.23120296 -0.00207664 0.02312459 -0.3297937
-0.012832366 0.20334078 0.0532403 0.031056648 0.26858538 -0.26570728 -0.3666752 -0.012770321
-0.027050767 0.010427657 -0.063223734 -0.12073893 -0.0066890586 0.1342068 -0.011633599 -0.027273836
-0.019637479 0.0032505544 0.15935113 -0.23685493 0.27885476 -0.067488536 0.25325632 0.044494886
-0.0097190775 0.0164694 0.0024296204 -0.089393415 -0.17780833 -0.00081148255 -0.05103482 0.016453901
0.025311176 0.0048056524 -0.07293953 -0.016428504 -0.00023935226 0.15596043 -0.023249304 -0.017891575
0.027091984 -0.14314036 -0.06465041 -0.004284466 -0.008596264 -0.19388784 0.007846871 -0.06201779
0.026385888 0.0070732934 0.21686803 -0.0085192155 -0.02469786 -0.014632976 0.0008250498 -0.028300185
-0.020015374 -0.0007705975 -0.002376351 -0.010195675 -0.0025258558 0.059482016 -0.062429838 0.17324257
-0.038464174 -0.024239698 0.018208617 0.01095669 0.01131176 0.053724226 0.10656767 -0.18623519
-0.026766028 -0.027482796 -0.019861879 -0.23354244 -0.00777714 -0.00916319 -0.014404796 0.053580515
-0.1771678 0.06695157 -0.21636942 -0.009509065 0.051465377 0.14611702 -0.030202774 -0.002226513
-0.029273942 -0.022103686 -0.052880242 0.0075581344 0.030283552 -0.011931557 0.020868436 0.0021740005
0.104276665 0.03750619 0.026825828 0.27475184 -0.017866682 0.13395423 0.023823177 -0.018167026
-0.07109599 -0.15882865 0.013296362 -0.20836633 0.003624607 -0.020410813 -0.06566677 0.10222424
0.24447846 -0.0056434646 -0.006797399 -0.027259925 -0.07439831 0.02601178 0.0010251548 -0.15395626
-0.04677581 0.00333792 0.077704325 0.06767528 -0.24007972 -0.004832617 0.02720483 0.027508914
0.021564908 -0.08773002 -0.18794838 0.11052491 -0.017815214 0.023396641 0.0017466726 -0.065193996
-0.020293804 -0.0049907914 0.12384258 -0.0421732 0.021782367 -0.030555783 -0.08151027 -0.058433842
00000000: b9c8 e03d 293c 2dbe 8499 153c ecb6 c7ba
00000010: 065c 183b 4838 723d c69f 6bbd 3c76 edbc
00000020: d6a6 e4bb 7923 633e 6413 85bd fb0b 9c3d
00000030: f7f8 d93d 7db8 0dbc 052f 3b3d 6c87 503d
00000040: f522 5c3a 1976 d03c ba8d d8bc f468 303e
00000050: c931 a2bd 41c8 c43d 7174 bbbc e189 473e
00000060: 6fdd de3c e42b 713d 976e a73c 1d9b acbb
00000070: 6034 a53d d491 5a3e aec6 d0bb d509 b23b
00000080: 0d52 0a3e 954a 923d d297 af3c 9674 193e
00000090: 8166 7cbe c30d 213b 7314 50bd eec3 5cbc
000000a0: 3af3 27bc 47ee c63b 10bf e33d 233b 08be
000000b0: 1030 2c3d f7d9 933e a896 813e 8db0 203c
000000c0: 89b0 dfbd d4ad 683d 0523 613e c440 1abe
000000d0: 3e78 0d3d b86b 253d d714 00bb cd4a 213b
000000e0: 05cf 7dbb 5cbc 663d c462 413c 26dd 233c
000000f0: d64b 63bb 3d32 553d a251 30ba e709 09bb
00000100: 31b4 9bbd 3db6 423d 8460 f3ba 4484 993d
00000110: 9826 ccbc a704 d33c 37ca e3bb 18e2 aebd
00000120: 43d3 9b3e e6bc 9bbc ce5b 7fbc e822 ddbb
00000130: 7f52 30be 6c76 bebb e183 60bd 981d e13c
00000140: 81e9 c2bb 055e bfbd 0cd7 9cbb f9e9 af3a
00000150: 4c31 adbc e571 88bd b6db bcbd b57b c1bc
00000160: fc4e 1e3c f82c 493e d643 38bd 4fcb 9f3c
00000170: a03b ba3c cb4e 7d3e c234 ad3b bab1 a13b
00000180: da8f cbbc 45b3 7a3e 5903 e23c 48f9 253c
00000190: fedf 003e 6ab2 0fbb 9d3b 76bd c3ea 1e3c
000001a0: 6ef9 273d 70ed db3c 8dc9 a43c 47cc 963c
000001b0: 78c0 6c3e 3d18 08bb c86f bd3c b8da a8be
000001c0: d83e 52bc 9138 503e 8012 5a3d 836a fe3c
000001d0: 0684 893e c90a 88be dabc bbbe 9c3a 51bc
000001e0: 9299 ddbc c3d8 2a3c 727b 81bd f945 f7bd
000001f0: e42f dbbb 826d 093e da9a 3ebc 616d dfbc
00000200: c7de a0bc 4107 553b f12c 233e 198a 72be
00000210: 0dc6 8e3e 6e37 8abd d0aa 813e 4540 363d
00000220: c43c 1fbc d6ea 863c 443a 1f3b e513 b7bd
00000230: 6313 36be acb9 54ba e309 51bd 55ca 863c
00000240: 6259 cf3c bc78 9d3b 5261 95bd 1295 86bc
00000250: a2fa 7ab9 17b4 1f3e 5375 bebc 5a91 92bc
00000260: 02f0 dd3c 6393 12be 6f67 84bd b564 8cbb
00000270: 58d7 0cbc 898a 46be 2a90 003c 5e06 7ebd
00000280: 3827 d83c 16c7 e73b a712 5e3e 2e94 0bbc
00000290: 2b53 cabc 26bf 6fbc 2848 583a cad5 e7bc
000002a0: 48f7 a3bc ec01 4aba 8ebc 1bbb c30b 27bc
000002b0: d488 25bb 6aa3 733d 6eb6 7fbd 8066 313e
000002c0: 9c8c 1dbd 5592 c6bc 3d2a 953c b083 333c
000002d0: f654 393c ef0d 5c3d 2740 da3d 70b4 3ebe
000002e0: 6e44 dbbc 9a23 e1bc 61b5 a2bc c025 6fbe
000002f0: 61d7 febb 3421 16bc 1802 6cbc 3e77 5b3d
00000300: 7a6b 35be e81d 893d f28f 5dbe e9cb 1bbc
00000310: 5ccd 523d b39f 153e cf6b f7bc b1ea 11bb
00000320: e8cf efbc ca12 b5bc f498 58bd 3aaa f73b
00000330: 3615 f83c 947c 43bc 48f4 aa3c ad79 0e3b
00000340: 018f d53d 17a0 193d d7c1 db3c 46ac 8c3e
00000350: 265d 92bc 4c2b 093e d328 c33c 04d3 94bc
00000360: c69a 91bd faa3 22be fcd8 593c fc5d 55be
00000370: d18a 6d3b 9434 a7bc 4d7c 86bd f15a d13d
00000380: 9058 7a3e d0ec b8bb b7bc debb 3550 dfbc
00000390: 245e 98bd a816 d53c 7d5e 863a b6a6 1dbe
000003a0: fe97 3fbd 01c1 5a3b 7223 9f3d 5699 8a3d
000003b0: 75d7 75be ee5a 9ebb aadc de3c 605a e13c
000003c0: e4a8 b03c ccab b3bd 8a75 40be e25a e23d
000003d0: 36f1 91bc 50aa bf3c 9bf0 e43a 6e84 85bd
000003e0: 313f a6bc cb89 a3bb 2ea1 fd3d cebd 2cbd
000003f0: ef70 b23c 1f50 fabc dbee a6bd 5358 6fbd

layers.0.mods.issued.fc_self.weight f4 [64, 1]
-0.1334381 -0.30668622 -0.0773859 0.06275689 -0.13217813 0.23955832 -0.15035816 -0.21851487
0.2927134 -0.23956421 0.0991452 -0.012632221 0.3070689 0.1812995 0.39888996 -0.36031768
-0.08910961 0.020378334 0.27249542 -0.40456194 -0.2193886 -0.16120283 0.25412562 0.35870975
-0.1349879 -0.27662215 0.008979557 0.24664286 0.070113555 0.13934469 0.34411415 0.17293113
-0.34869045 -0.3266835 -0.3385381 0.013286712 -0.09474242 0.004290794 0.09553756 -0.09320193
0.07022742 -0.3890884 0.06745474 0.1785906 0.13305525 -0.35130674 -0.1530654 0.3221263
0.3720305 -0.07323181 -0.35787395 -0.09377975 0.106392495 0.116136625 0.071150176 -0.23784836
-0.19340494 0.15718289 0.29522687 -0.271299 0.1007612 -0.23918357 -0.33182594 -0.3035197
00000000: ffa3 08be fa05 9dbe 807c 9ebd af86 803d
00000010: b459 07be c74e 753e 7df7 19be 5dc2 5fbe
00000020: 88de 953e 5250 75be a30c cb3d 60f7 4ebc
00000030: 2338 9d3e 93a6 393e 4e3b cc3e 8f7b b8be
00000040: 197f b6bd 77f0 a63c 8584 8b3e be22 cfbe
00000050: 68a7 60be 5b12 25be c11c 823e cea8 b73e
00000060: 453a 0abe 6ba1 8dbe fe1e 133c f28f 7c3e
00000070: b297 8f3d 60b0 0e3e bb2f b03e dc14 313e
00000080: 8e87 b2be 0f43 a7be de54 adbe 82b0 593c
00000090: 5008 c2bd ca99 8c3b 32a9 c33d a7e0 bebd
000000a0: 65d3 8f3d 9836 c7be b625 8a3d 74e0 363e
000000b0: a33f 083e 7ade b3be 2dbd 1cbe bded a43e
000000c0: c87a be3e 8ffa 95bd 413b b7be 990f c0bd
000000d0: 4fe4 d93d 0ad9 ed3d 2fb7 913d 858e 73be
000000e0: f20b 46be 8df4 203e fa27 973e b4e7 8abe
000000f0: e35b ce3d 8aec 74be 17e5 a9be ef66 9bbe

layers.0.mods.issued.fc_self.bias f4 [64]
0.7653963 0.17618471 0.4265703 -0.5773335 0.81781197 -0.7631619 0.19994707 0.38611457
0.6484711 -0.7783085 -0.7999944 -0.6193712 0.8705452 0.6587817 -0.77011186 0.71019024
-0.51197946 -0.9513312 -0.78523546 0.36193284 0.06356881 0.28978172 -0.3741704 0.45104954
-0.4954583 -0.85168195 0.11270978 0.63324004 -0.7766012 0.033737853 -0.41818002 -0.44584912
0.6534323 0.055312265 0.6494409 0.6720767 -0.13352898 -0.35644934 -0.94840693 0.22987257
0.69138163 0.45725167 -0.41617545 -0.7019703 0.5894186 0.005603347 0.49938917 -0.35968056
-0.4091269 0.2397998 0.23011757 -0.16399886 -0.75304365 0.06628456 0.21857317 -0.44809636
-0.08058981 -0.3460415 -0.4724496 -0.04311956 -0.023703026 0.27385387 -0.7546228 -0.90676063
00000000: 03f1 433f c469 343e 6c67 da3e 21cc 13bf
00000010: 205c 513f 945e 43bf edbe 4c3e cfb0 c53e
00000020: 3402 263f 3a3f 47bf 6fcc 4cbf 1c8f 1ebf
00000030: 0ddc 5e3f eba5 283f 0d26 45bf 07cf 353f
00000040: 1611 03bf 718a 73bf 3105 49bf 434f b93e
00000050: 5d30 823d 455e 943e 4393 bfbe f7ef e63e
00000060: b6ac fdbe d407 5abf 63d4 e63d 051c 223f
00000070: 56cf 46bf b430 0a3d b11b d6be 5646 e4be
00000080: 5747 273f 1d8f 623d c241 263f 380d 2c3f
00000090: d2bb 08be 8780 b6be ccca 72bf b763 6b3e
000000a0: 63fe 303f e41c ea3e f314 d5be 53b4 33bf
000000b0: 23e4 163f 489c b73b f0af ff3e 0d28 b8be
000000c0: 1579 d1be 148e 753e f1a3 6b3e 51ef 27be
000000d0: 78c7 40bf 33c0 873d a5d1 5f3e e36c e5be
000000e0: 450c a5bd 5a2c b1be eae4 f1be 239e 30bd
000000f0: d92c c2bc 9336 8c3e f62e 41bf 7721 68bf
